Adversarial Learning/model.pth (torch, 338676 bytes, 6 tensors)

linear1.weight f4 [100, 784]
00000000: ac2f c1bc 3847 e93b 254d f4bc d843 993c
00000010: 0046 61bb 9c3f 793c baaa 99bc 18e0 073c
00000020: 4253 05bd e8ae b0bc 1753 00bd e34c f1bc
00000030: 1eba 0c3c c534 a2bc 439e c53c cfe9 23bd
00000040: 9f58 03bd ce90 e1bc aabc 5cbc 8abf 33bc
00000050: 780c 21bc 6e0c 01bd 33c6 c0bc f998 083d
00000060: d8aa 89bb 6e54 843c dc97 07bd 000a 4ebc
00000070: bc6b b8bc 85af 0dbd 43ef 09bd 101b cabc
00000080: 501e 373b 8bf7 2a3c 39ff 0ebd da32 4dbd
00000090: 854f e5bc 55bd ccbc 5e3f 42bd 3ca5 9abc
000000a0: c619 b2bd 5598 9ebd 7ca6 d4bc 2538 d6bc
000000b0: 1520 763c 51cc df3b f6b8 2dbd 81da 14bd
000000c0: 98a2 3cbd 0857 c5bb 3531 5cbc eccf 743c
000000d0: bceb b5bc 8727 0ebd 18aa eebc dc44 48bc
000000e0: 86d5 09bd 6ec9 e7bc 0a77 923c 28e8 73bc
000000f0: aa4f 27bd beea 11bd ae68 f0ba f2f5 9ebc
00000100: 6b15 bcbd c8c0 7cbd 5349 93bd 5dff eebd
00000110: 68ad f9bd 1924 ddbd 944b b7bd 69af 01bd
00000120: df0e bbbb f896 e0bb f46b 09bd faf6 02bd
00000130: b768 16bd d4e0 413c f7c2 38bc cec4 7cbd
00000140: 3ce1 673c dc69 cfbc 0810 283c 3abc a33c
00000150: e6c7 1ebc c804 84bb 0066 2a3c bd82 0ebd
00000160: f961 99bc a76d 54bd 4ae7 48bc f2a3 3bbd
00000170: 630d aebd a03b 5bbd 69f4 e4bd 7261 c9bd
00000180: 9c10 c3bd b252 febd fc53 01be 8925 a3bd
00000190: e779 7abd 9409 473a 4d77 4f3c aa15 ab3c
000001a0: 13dd 57bc 8d72 883b 03fa 34bc 1414 29bd
000001b0: 1d8e df3c 29f6 54bc 02c2 803c 00d0 e03a
000001c0: 00f6 b03c 50bb 543b c801 603c fd06 febb
000001d0: 21d1 3cbc 6f5a 393d eea8 f73c 8bb9 41bd
000001e0: 8bfd 90bd 0517 dcbd 92a2 0dbe eab9 1dbe
000001f0: cd37 09be 3ce9 15be 09e9 11be 0435 eebd
00000200: 5717 1bbe 49e0 ddbd f59d a6bd 2c55 cbbd
00000210: 434f 80bd 09b0 0ebd e8e4 84bc fe2b 1f3d
00000220: d976 273c a339 01bd 8a17 bd39 ce1d 3abc
00000230: bcf3 e2bc 936e e5bc dc3a 693c 8204 2fbc
00000240: edc6 9dbc 3f32 843d 2f08 4c3d 3a6b 10bc
00000250: 1d62 aeba 3df3 223d ab9e f9bb 9685 09bd
00000260: 41ca 76bd 8923 4dbd 9c9c b3bd 0b01 bfbd
00000270: 8653 dbbd 38c5 96bd 0f75 fabc 7fb8 a8bd
00000280: 2e98 02be 26c6 debd af42 b6bd 6612 9f3b
00000290: f767 b73c c448 34bc 41ce 37bd 6359 36ba
000002a0: b92f 113d 700b f03b d004 b33c 4a04 593c
000002b0: b9b9 873d 4633 a33d 380b cc3d 412a 773d
000002c0: c426 643d b50e b53d e91b ac3d f22d 8c3d
000002d0: 0cd6 05bd 202b d3bb 816d 8fbc 8a38 78bd
000002e0: 22c1 8abd d3cc 54bc 12f0 79bd 79b8 8ebd
000002f0: de63 30bd 69a7 0d3b 2aa8 8b3c c728 85bd
00000300: 15cc a1bd 1d06 2ebd 1615 cb3c fe1b 1bbd
00000310: 9576 b13c ce12 153d 8d89 033d 81d7 813d
00000320: 5e28 5f3d edd2 863d 13dd 993d a138 de3d
00000330: 2b22 b23d 1109 d13d 5582 8e3d 2a39 973d
00000340: b9d2 803c 0095 2cbb 7e6d 1abd 56f7 52bc
00000350: 7eb1 03bd 2b1f 0fbd fb7f e7bc 4c31 15bc
00000360: f5f8 273d b862 873d e636 b33c 91f0 cf3c
00000370: db36 8bbc db1a 4fbd 9f50 373d be52 ac3c
00000380: 11e9 cabc b53d b53c ed82 aa3c f5f7 ba3d
00000390: 36bf 553d c235 3e3d 7c65 653d 3343 e23d
000003a0: 342e 833d eaa6 743d 66ed 8d3d 9c19 393d
000003b0: 0c81 873d 283a c93c d690 da3c 59b2 a5bc
000003c0: 5bbb a1bc f81b 0fbb 24d7 47bc ac89 aa3b
000003d0: 0156 ad3b 17ff 163c c3cd 9d3d fdda e33b
000003e0: 1950 82bd efe4 11bd b11e 83bd e98a 983b
000003f0: 7c96 353d 442a 9f3d 2f20 3e3d 24f3 b93d
-0.023582302 0.0071190856 -0.029821942 0.018709108 -0.0034373999 0.01521292 -0.018758167 0.008293174
-0.032550104 -0.021567777 -0.03132924 -0.029455608 0.008589296 -0.019800553 0.024123317 -0.0400179
-0.032066938 -0.027534869 -0.013472715 -0.010970959 -0.009829633 -0.031505994 -0.023532009 0.03334901
-0.0042012744 0.01615354 -0.03310381 -0.012575626 -0.02251231 -0.034591217 -0.033675443 -0.024671108
0.0027941652 0.010434995 -0.034911368 -0.050097324 -0.02799202 -0.024992624 -0.047423713 -0.018877618
-0.08696322 -0.07743899 -0.025958292 -0.026149819 0.015022297 0.0068297763 -0.04241272 -0.036341194
-0.0460535 -0.006022338 -0.013439466 0.014942151 -0.022207133 -0.034705665 -0.029133841 -0.012223449
-0.033650897 -0.028294291 0.017879028 -0.014886893 -0.040847458 -0.03562426 -0.0018341744 -0.019404385
-0.09183773 -0.061707288 -0.0719172 -0.116698004 -0.12191278 -0.10797901 -0.08949962 -0.031661425
-0.00570856 -0.0068539344 -0.033550218 -0.031973816 -0.036720958 0.011833388 -0.011276952 -0.061711125
0.014152821 -0.025319032 0.010257728 0.019987214 -0.009691214 -0.0040288903 0.010400295 -0.03479265
-0.018723475 -0.051862385 -0.012262175 -0.045810647 -0.08498647 -0.05352366 -0.1117943 -0.09833039
-0.09524652 -0.12418117 -0.12629694 -0.07966144 -0.06115141 0.0007592675 0.012662721 0.020884354
-0.013175267 0.004164046 -0.011045936 -0.041278914 0.027289445 -0.012998142 0.01571751 0.0017151833
0.021601677 0.003246028 0.0136723 -0.007752298 -0.01152447 0.04525226 0.03023192 -0.04729609
-0.070796095 -0.10746578 -0.13831547 -0.15402952 -0.13400193 -0.14639753 -0.14249052 -0.11631206
-0.15145622 -0.108337946 -0.08135597 -0.099283546 -0.06265118 -0.03483585 -0.016222432 0.038860314
0.010221207 -0.031549107 0.00036066427 -0.011359645 -0.027704112 -0.028006827 0.014235225 -0.010682227
-0.019259894 0.06454896 0.049812492 -0.008814627 -0.0013304387 0.03978275 -0.0076177916 -0.033574663
-0.060251478 -0.050082717 -0.08770105 -0.09326371 -0.1070929 -0.07361835 -0.030573396 -0.08238315
-0.12753364 -0.108776376 -0.08899438 0.004854488 0.022388441 -0.011003677 -0.044874433 -0.00069560687
0.035445902 0.007325582 0.02185288 0.0132456515 0.06627221 0.07968764 0.09963077 0.06034303
0.055701032 0.08840696 0.08403761 0.06844701 -0.032674834 -0.00644435 -0.01750827 -0.060600795
-0.067751184 -0.012988287 -0.061019965 -0.06968779 -0.04306399 0.0021614677 0.01704796 -0.06501918
-0.07900254 -0.0424863 0.024790328 -0.037868492 0.02166299 0.036394887 0.0321136 0.06339932
0.054481857 0.065832 0.0751287 0.10850645 0.08697923 0.102068074 0.069584526 0.0738395
0.01572548 -0.0026333928 -0.037702076 -0.012876352 -0.03215169 -0.034941833 -0.028259268 -0.009105992
0.04100891 0.06610626 0.021876764 0.025383266 -0.01699393 -0.05056272 0.04475462 0.021035548
-0.024769338 0.02212415 0.020814383 0.09129325 0.052184306 0.046437986 0.056004986 0.110479735
0.06405297 0.059729494 0.06930046 0.04519044 0.066164106 0.024563864 0.026680391 -0.020226644
-0.019742658 -0.002183674 -0.01219729 0.0052044 0.0052897935 0.009216092 0.077052616 0.0069535957
-0.06362934 -0.03561872 -0.06402338 0.0046552313 0.044332966 0.077717334 0.04641741 0.090795785

linear1.bias f4 [100]
00000000: 1040 ae3d a9c4 c13c 2a51 663d c2cf 64bd
00000010: 12a8 b5bc dc94 afbc 8092 f13c ce31 bd3d
00000020: 297a 313d d375 193d 5859 823d d6e1 103b
00000030: a0a7 e63d a0b6 903d 675a 0e3d 0663 e33c
00000040: b7d5 ed3d 5aa7 a5bb 19c5 9dbd d2da a3bc
00000050: 7b5e 403d ee48 e83d 10e5 de3c 8d54 353c
00000060: 3b4e 823d 01f4 793d 6fc6 59bb 26f7 223d
00000070: cb3b 403d 1b1b 98bb 93b9 96bc 90ef 6dbd
00000080: ea7f a23d 734b 8fbd dcb0 a03d e8dd 82bb
00000090: 492d 663d 90b5 eb3d af44 2b3d 19a7 78bd
000000a0: 5755 1bbc 3cf4 0a3d be36 943d 5e51 843c
000000b0: 6cc7 ce3c 1163 2bbd dea3 953d 3f24 04bd
000000c0: 0513 1ebd 24ce 673d 46e5 323b bbe8 133e
000000d0: 761c 34bd 72ea a13c a4c2 733d 2701 cebb
000000e0: 3df3 b93d d271 3bbc e036 2f3d 09db 963c
000000f0: 5e62 87bd 853e bc3d 5f3a f1bc f977 c13d
00000100: 31bf 49bc 067c e63c d3b9 fc3c 25b6 59bd
00000110: 4776 c83d 8134 82bd 74f4 333d fb88 c13d
00000120: d94a 613d 554d b9bc 1749 b2bc 4285 edbb
00000130: c504 d03d abc2 623d 1b4b e9bd f688 b4bd
00000140: f2b2 303d c435 6cbd ace1 30bb 3993 6c3d
00000150: b339 39bd cf59 3fbd 3951 9b3b 2c36 423d
00000160: 6f1c 893d 7967 d23d c206 8cbb 3935 3fbd
00000170: a1b5 703d f52b 0c3d 06dc 6d3a ae84 2e3c
00000180: 067e b1bc a8d0 d43d f702 a73b 45c1 3abd
0.08508313 0.023653345 0.056229748 -0.055862196 -0.022174869 -0.021433286 0.029488802 0.09238015
0.04332939 0.03746588 0.06364697 0.0022107265 0.11262441 0.07066083 0.034754183 0.027757179
0.116130285 -0.0050553503 -0.07703609 -0.020001803 0.046965104 0.11342035 0.027208835 0.011067522
0.063625775 0.061023716 -0.0033229848 0.03978648 0.046932023 -0.004641903 -0.018399036 -0.058089793
0.07934554 -0.06996813 0.07846233 -0.0039937384 0.05619553 0.1150924 0.04181355 -0.06070623
-0.009480796 0.033924326 0.07237004 0.01615208 0.025241576 -0.041842524 0.07306646 -0.03226113
-0.038592357 0.056593075 0.0027297302 0.14444248 -0.043972455 0.019765113 0.059511796 -0.0062867585
0.09079597 -0.011440711 0.042776942 0.018414991 -0.06610559 0.09191612 -0.029446779 0.09446711
-0.01231365 0.02813531 0.030850327 -0.053152222 0.097881846 -0.063576706 0.0439343 0.09449955
0.05500302 -0.022619883 -0.021763368 -0.0072485516 0.1015716 0.05536143 -0.11391278 -0.08815186
0.043139406 -0.057668462 -0.002698998 0.05775759 -0.045221042 -0.046716508 0.004739907 0.047414944
0.066948764 0.10273642 -0.0042732665 -0.046681616 0.058766965 0.03422161 0.00090736186 0.0106517505
-0.021666538 0.103913605 0.005096789 -0.045594472

linear2.weight f4 [50, 100]
00000000: b549 b63d d6bd 953d 52b6 18be 91f7 f03d
00000010: 1d20 a53d 85a0 04bd d37b 233e 53fa e83d
00000020: 5e01 613e a7f1 01be be11 66bc 5fe0 333c
00000030: 2f24 003e 60f7 8dbc 2fb1 cfbd 145c ecbd
00000040: 4100 1cbe fcd7 56bd 7824 8fbc d94f 33be
00000050: 21be 3c3d 8638 883d 0a5c d33d 1f1b 83be
00000060: 5a13 e8bd 617a acbd 5fc2 aa3a f255 c6bd
00000070: e589 2cbc 48d5 043d b7ba 76bd 8163 1abe
00000080: c73a a73d 9a2a f0bc a1a3 ed3d aa35 0e3e
00000090: 0398 f8bc b7fa 013e 4d24 c1bd 6766 61bd
000000a0: 285b 743c e4df 3c3e 5d38 f4bc 19ed 6abd
000000b0: c86e 1f3b faf9 49bd f85d bc3c c66f 90bd
000000c0: 25a9 1c3c afa5 ba3d ffea 893d b6e7 3e3d
000000d0: 28b8 cd3b 64cd 0a3d 30b4 24bd b636 c9b9
000000e0: 2dd2 16be 9bfd 8a3c b1d8 793d a2dd 82bd
000000f0: a226 d03d a69e 34bd 4f75 47bd 362b 1fbe
00000100: e48b 1a3d 6d86 013e dd27 983c 7d28 4b3d
00000110: 5479 17bd 7ac1 233c f824 363d 2218 0a3e
00000120: 2a44 8bbd 7745 8fbd ad7b f23d 94bd fd3d
00000130: a14e 8cbd de89 a13d 4630 abbd d9fb 073d
00000140: ec3b b3bd a1d7 3fbd 52fd 1a3d e4ab 2abd
00000150: 4800 f8bc 9465 13be 75e5 593d 3e4b 813b
00000160: 2910 26bd 1b69 a93c 39a7 02bd a682 68bd
00000170: 11fc e8bd 137c 0e3e e3ee e83d 20f5 163a
00000180: 5c63 a6bd e832 173e 18c9 1d3d 696e 663c
00000190: 9e31 8e3d 6286 3bbc 807a 683e a46a 65bc
000001a0: 93e6 5f3d e519 9abc f24d 07be 6352 74bd
000001b0: 4364 943c d8fc 5a3d f2d8 1cbd f033 cd3c
000001c0: 0167 b4bd 3c59 b2bd 9ffb 0a3e 41c0 09bc
000001d0: 8c89 87bc 0ef6 29be 3a32 203e ca9e 003d
000001e0: 7aa6 f03d 98b9 86bd 9ec9 6f3d 4bd0 24be
000001f0: 0ec4 2abe fa45 e53d a288 db3d 3249 3cbc
00000200: a992 eebc c8ca 40bd d0c9 bcbc f366 f03d
00000210: fe37 22bd bd15 7a3d 5a34 7e3d 0f5a f1bc
00000220: 0270 033e 4e58 a4bc c311 70bd 04e9 80bd
00000230: bc56 4d3e 1891 583e 4543 05bd 6c8e 493d
00000240: 83d2 023e 014e 83be aded 4e3d 0121 b7bd
00000250: ce22 263d 32f3 34be 6f2a 3f3d de1d b0bd
00000260: 3975 2dbd 6ca4 f63c 0349 b13c 0a01 743d
00000270: 8b34 903d 79f7 493d 9386 553d 3680 7cbc
00000280: ec2f 0ebc 268b 31bd b808 d33c 9c74 223d
00000290: 8ca6 cc3b 3458 c93d 6af6 b63d 4c32 073e
000002a0: 5bd6 00bd cd08 213e ec94 713d aff2 3dbe
000002b0: 31ed d03d d747 64bc be3d 9ebd 4602 b53d
000002c0: f808 82bc ad0a 983d c16f 2d3d 5eb4 933d
000002d0: d8dc 51bd 1a78 95bd b4ff 903d 9a9e 723c
000002e0: 2d6a c23c 670c 1dbd 1ad7 403e d19d 52bd
000002f0: 2735 6cbd c354 9cbc a6c0 5b3d 5629 01bd
00000300: c087 f83b cc83 a1bd d423 6d3d a48d 233e
00000310: 8062 063d 0948 09bd e014 4bbd 4ba3 dc3d
00000320: 7cd3 94bd 7e63 94bd 6290 e43d 65b3 cebd
00000330: b57c 013c 86a2 cebc 489e 3d3e 19e2 61bd
00000340: e24a 4c3e b0c4 673e c579 1d3d bc58 24be
00000350: 8054 be3d b907 a8bd 0adb 0f3d 0ffe 213d
00000360: 0769 e03d 0823 b7bd 7944 273d 7996 543d
00000370: a146 2f3e 5384 cabc d667 e6bb 370d 4d3e
00000380: 6dc5 9bbc eea1 293e 7bb4 20bd a842 1e3d
00000390: 1ee8 d43d fa2d f1bc 7140 083d 1011 ce3d
000003a0: 6649 2abd d75f cebd b371 d4bd c588 5cbd
000003b0: ccc5 973d af1f eebd 8254 133e 6add 6dbd
000003c0: 0924 fb3d 4560 76bd f0ce 443d 0556 423d
000003d0: b54b 12be 3331 5ebd 3595 7dbc 8a98 8cbc
000003e0: 3f72 183d a78a 143e 3569 96bd 5998 613c
000003f0: 788b cc3d ac3d cbbb 1b44 78bd b646 213d
0.08900777 0.07311599 -0.149133 0.117659695 0.08062766 -0.032379646 0.15965204 0.113758706
0.21973178 -0.1268984 -0.014042316 0.010978787 0.12513803 -0.017329872 -0.10141217 -0.11541
-0.15234472 -0.052452073 -0.017473444 -0.17510928 0.04607976 0.06651406 0.103202894 -0.2560663
-0.11331816 -0.084217794 0.0013027898 -0.096843615 -0.0105309235 0.032429963 -0.06023666 -0.1507702
0.08165508 -0.029317189 0.11603475 0.13887659 -0.030345922 0.12693296 -0.09430752 -0.0550293
0.0149143115 0.18444782 -0.029812032 -0.05735502 0.0024327505 -0.04931066 0.022994027 -0.07052569
0.009561812 0.09113633 0.06734275 0.046607696 0.0062780567 0.033887282 -0.040210903 -0.0003837847
-0.14728613 0.016966632 0.06099767 -0.06389929 0.101636186 -0.04409661 -0.04869586 -0.15543827
0.037731066 0.12648936 0.018573696 0.04959916 -0.036980942 0.009994859 0.04446885 0.13485768
-0.06800111 -0.06995671 0.118399955 0.12389675 -0.06850935 0.07887624 -0.08358817 0.033199165
-0.087516636 -0.0468365 0.03783924 -0.041667834 -0.030273572 -0.14394218 0.053197343 0.003945737
-0.040542755 0.020680001 -0.031897757 -0.05676522 -0.11376203 0.13914518 0.11373689 0.00057585724
-0.0812442 0.14765513 0.038521856 0.01406441 0.069430575 -0.011445614 0.2270298 -0.014002476
0.054663252 -0.018811176 -0.13213328 -0.059648883 0.018114215 0.053463787 -0.038292833 0.02504918
-0.08808709 -0.08708426 0.13572548 -0.008407653 -0.01654508 -0.16597769 0.1564416 0.031401433
0.11750503 -0.06578368 0.058541887 -0.16095082 -0.16676351 0.111949876 0.1071942 -0.0114920605
-0.029122667 -0.047068387 -0.02304545 0.11738386 -0.03960418 0.061055887 0.062061645 -0.029461889
0.12835696 -0.020061638 -0.05861069 -0.06294444 0.20052618 0.21149099 -0.032534856 0.04920809
0.12775616 -0.2564545 0.050519634 -0.08941842 0.040560536 -0.17670897 0.046671327 -0.08599447
-0.04234812 0.0301077 0.02164126 0.059571303 0.07041272 0.049308274 0.052130293 -0.015411427
-0.008678418 -0.043345593 0.025760993 0.03966199 0.00624544 0.098312765 0.089337185 0.1320278
-0.031454425 0.15726013 0.058979914 -0.18549608 0.10201491 -0.013933144 -0.0772662 0.08838324
-0.015873417 0.07423911 0.042342905 0.07212137 -0.051236004 -0.07298298 0.070800215 0.014808321
0.02373227 -0.038341906 0.18832055 -0.051420037 -0.057667878 -0.019083386 0.05365052 -0.03153356
0.007584542 -0.078864664 0.057895496 0.15972 0.03280878 -0.033515964 -0.049580455 0.10773333
-0.072669 -0.07245539 0.11160351 -0.100928105 0.007903268 -0.025223982 0.18517411 -0.055147264
0.1995044 0.22633624 0.038446207 -0.16049474 0.09293461 -0.08204598 0.035121 0.03954893
0.109575324 -0.089422286 0.040836785 0.051901314 0.17116787 -0.0247213 -0.007031421 0.20024572
-0.019015038 0.16565678 -0.03923462 0.038637787 0.10395835 -0.029440869 0.03326458 0.10061848
-0.041573904 -0.10076874 -0.10373249 -0.05384137 0.07410774 -0.11627137 0.14387706 -0.058072485
0.122627325 -0.060150404 0.048048913 0.047445316 -0.14286692 -0.05424614 -0.015477468 -0.01716258
0.03721833 0.14506017 -0.073442854 0.013769233 0.09987539 -0.00620242 -0.060611825 0.039374076

linear2.bias f4 [50]
00000000: 4f7e ec3d 6a89 87bd 6af4 dd3d 3422 c4bd
00000010: b796 13bd c60a 1f3e 5672 fb3d 3321 acbd
00000020: 0409 8b3d b382 953b ca52 08be 24d2 e23c
00000030: 8ad0 89bb a3ee 493d d416 153d 7fa2 a73d
00000040: 95e8 f23d e37f a03d 90af 31bd dd71 5dbd
00000050: 8e6b 86bc ca87 f63d 2ba8 b53b e46a 373d
00000060: ba9c a7bd 9dfc 0bbe c34d aeba 9cfd bfbd
00000070: 5965 7dbc 7d43 933d 9071 f93d d469 2f3e
00000080: 28a0 9f3d f04b 2dbd e000 42bd 2744 16be
00000090: 1b46 2e3d 96ce a2bd 7943 f5bd b60e e4bc
000000a0: 03cc 12bd 5a0f 2d3d 5744 ab3d a0d5 b03c
000000b0: 9f5b 2c3d e810 363d 4616 e2bd 3f42 523c
000000c0: ff3f f0bb 13f9 003e
0.11547529 -0.066180065 0.10837634 -0.09576836 -0.036032405 0.15531453 0.12277667 -0.0840477
0.06788829 0.0045626997 -0.13312832 0.027688093 -0.004205768 0.049299847 0.036398724 0.081852905
0.11860768 0.078368925 -0.04338032 -0.054063667 -0.016408708 0.120376185 0.005543729 0.044779673
-0.0818419 -0.13670583 -0.0013298321 -0.09374544 -0.015466058 0.07190607 0.121798635 0.17130214
0.07794219 -0.042308748 -0.047364116 -0.14674436 0.042547327 -0.079495594 -0.1197576 -0.027839046
-0.035839092 0.04225097 0.08362644 0.02158624 0.042079564 0.044449717 -0.110394046 0.012833177
-0.0073318477 0.12595014

linear3.weight f4 [10, 50]
00000000: 5082 283e d412 13be 1da5 6ebe 3570 00be
00000010: d95d 1a3a 0c3c 723d 541c 313d 3642 bfbd
00000020: 021a 1cbe fad4 45be ac17 01be 7723 473e
00000030: 34e2 e03b 13ed c6bd a81a c3bc 0bca 2bbe
00000040: a582 1d3e ba18 0c3e fb03 8e3c 384d d0bd
00000050: 48bc f53d 1733 0c3e 963a 9dbd aa91 0dbe
00000060: 1523 bdbd 69b1 5a3d 8551 83bd 3795 ea3d
00000070: 5271 00be ff7d ca3d 2718 62be f260 2bbe
00000080: 48ed e23d 0c12 c2bd be86 443d bb1f 34be
00000090: db37 f33d 521b c13d b2e0 46bd e8bd 083e
000000a0: e8ec da3d 363c 72be e3c3 9bbc 8164 6abe
000000b0: fb97 873d 43bc 2fbe f996 0cbe 0bc6 b33d
000000c0: 24fa 9dbd 03fc 34be 6264 60bc 57c6 c33d
000000d0: c123 15be 44ff 23be f642 30be 4398 653d
000000e0: 9015 473e d2a2 ce3d cd42 f03d ddda 4b3e
000000f0: 9562 863d ca7c 9dbd 4137 5cbe 9ea2 82bc
00000100: 1772 46be e6f9 d33d 9f77 8cbe e9d2 8bbd
00000110: ab01 08be ef21 35bd 633c 82be 5646 7bbe
00000120: f2ab 48be f6aa 5bbc 070c 963d 1d06 94bd
00000130: fbcb 683e e1f0 13be 9bd0 383c b8ba e33d
00000140: afce 1ebe d670 4b3e 235a 1a3e 7937 2dbe
00000150: 1513 bd3d a6fa 1bbe 88db 34be 6270 dcbd
00000160: 7f1b be3b 1037 2dbe 24ba 74bd 50ab d93c
00000170: 9bfa 15be 2f40 2cbe 592a 28be f6cc 623e
00000180: adb0 913d 8b91 de3d c021 fd3d 92d8 69be
00000190: e2cb 88bd 2b64 c73d cba2 383e 2c28 b23d
000001a0: 2359 343e 70c3 b6bd 9562 16be b4ba 0c3e
000001b0: 4364 093d b1df 43bd e621 0b3e c994 723d
000001c0: 318d 6cbd 7d8c 553e 50bf 21be 75bf b5bd
000001d0: d5b2 763d 14e9 6a3a d08b 163e 6a81 dabd
000001e0: 0f62 f3bd a77f b93d afed 6c3c c9e4 80bd
000001f0: 9d3b a3bc b8e4 fdbc da24 983c 13f6 abbb
00000200: 4a96 31be 52bb 293e f363 15bd 22c7 a9bd
00000210: f21a c2bc ec99 793c 8fea 56bd f95f 2f3e
00000220: eedb cabd cf36 8abd 2a78 e4bd 11f8 babd
00000230: 2f10 61bd 67a4 0cbe 4c20 3dbe 4f35 b1bd
00000240: feed a6bc c685 293e c4ea df3d e767 d63d
00000250: e277 66be 962f 453d 377a 21be 8681 623e
00000260: 494a 973d 67b5 1bbe c21d 333c cb9b 2e3e
00000270: 6377 f6bd 407a 033e f532 db3d 4779 0c3e
00000280: 9a1a c4bb 8a98 b6bd ec67 453e e023 7bbe
00000290: 9a84 89be 7eb2 ebbc df52 25be bede b2b9
000002a0: 8ac5 a53d 4f14 ecbc 4281 08bd 27e6 07be
000002b0: d471 0cbe 47ba 453e 3bd3 c63d 283a e3bd
000002c0: ca88 dfbd 09f5 323d 504f 1fbc 8fb9 353d
000002d0: bfa1 68bd c555 823d a7bd 763d 3dd5 d93d
000002e0: 6304 5cbd bb12 283e bd3c 143e 73fa b0bc
000002f0: a8d3 683d 6ea7 6d3d 7ade e1bd 5618 49be
00000300: fe38 613d c941 c23d 20ee f9ba 2337 283d
00000310: e3d3 fc3d df6a 51be 2b6c 073d 7a4c 3cbe
00000320: c5f5 383e 0453 5bbd a4af 043e 9884 963c
00000330: d115 d9bd d821 1cbd 323e 5f3d 9727 313d
00000340: 3de8 fdbd 0128 4dbe 2df4 bf3c bf78 243e
00000350: 4caf 403d 8eca 1e3e cb12 4b3e cf77 113d
00000360: ff38 17bd 95d5 c13d 0702 72be ca69 d83d
00000370: f870 44bd 07f1 c1bd 226d b6bc 877d 4d3d
00000380: 5456 273d def1 68be f7e5 9a3c 5bab 25bd
00000390: 6b02 eb3c 6cae 49be b686 273e 58d3 d53d
000003a0: 8979 dd3d 088c 093e 954b dbbd 05dc 45be
000003b0: 9fd6 44be 6662 31be 04be 703e 0fa2 3dbe
000003c0: b258 03bc d3db c2bd 7aca 713e dc5e 433e
000003d0: 9755 d5bd 060d 11be 1369 29be 7426 24be
000003e0: a4c8 14bd 4f9b 5e3d 7df8 14be a153 08be
000003f0: cd91 0a3e 8072 72be 7d56 4ebd 6832 733d
0.1645596 -0.14362651 -0.23305173 -0.12542804 0.0005888618 0.059139296 0.043239906 -0.093388006
-0.15244296 -0.19319525 -0.12606686 0.19447123 0.006862903 -0.09713187 -0.023816422 -0.16776292
0.15381868 0.13681307 0.017335882 -0.10170978 0.119988024 0.13691364 -0.0767719 -0.13825098
-0.09235207 0.053391848 -0.06412033 0.11454242 -0.12543228 0.09887313 -0.22079526 -0.167362
0.11080414 -0.094760984 0.047980063 -0.17590229 0.11875888 0.09429039 -0.04855413 0.13353693
0.106897175 -0.23655781 -0.019014305 -0.22889902 0.06620785 -0.1716166 -0.13729466 0.08778008
-0.07713726 -0.1767426 -0.013695808 0.09559315 -0.1456442 -0.16015345 -0.17213044 0.05605341
0.19441819 0.10089649 0.11731491 0.19907708 0.06561772 -0.07689817 -0.21505453 -0.015946683
-0.1937946 0.10350399 -0.27435014 -0.06827337 -0.13281886 -0.044221815 -0.25436696 -0.2453855
-0.19596842 -0.0134074595 0.07326513 -0.072277285 0.22734062 -0.14447357 0.011280204 0.11119598
-0.15508531 0.19867262 0.15073447 -0.16915692 0.09232155 -0.15232334 -0.1766187 -0.10763623
0.0058016176 -0.16915536 -0.05974783 0.026570946 -0.1464638 -0.16821359 -0.16422404 0.22148499
0.07113776 0.10867604 0.12359953 -0.22836521 -0.066795126 0.097359024 0.1803085 0.086990684
0.17612128 -0.089239955 -0.14686044 0.13743097 0.033542883 -0.04782075 0.1358715 0.059223924
-0.057751838 0.20854373 -0.15795636 -0.08874408 0.06022914 0.0008961123 0.14701772 -0.10669215
-0.118839376 0.09057551 0.014460965 -0.06293637 -0.019925887 -0.03099285 0.01857226 -0.00524784
-0.17342487 0.16575363 -0.036472272 -0.08289935 -0.02369449 0.015234452 -0.052469786 0.17126454
-0.099052295 -0.06748735 -0.11155732 -0.09129346 -0.054947075 -0.1373459 -0.18469352 -0.08652746
-0.020377155 0.16554937 0.1093345 0.104690365 -0.22506669 0.048141085 -0.15769278 0.22119722
0.07387216 -0.15205918 0.010932388 0.17051618 -0.1203449 0.12839603 0.10703079 0.13718139
-0.0059846165 -0.08915813 0.19277924 -0.24525404 -0.2685898 -0.028771635 -0.16144894 -0.00034116762
0.08094318 -0.028818278 -0.033326395 -0.1327139 -0.13715297 0.1930934 0.09708258 -0.11095077
-0.10914762 0.043690715 -0.009723499 0.044366416 -0.056794878 0.063640155 0.06023946 0.10636375
-0.05371512 0.16413395 0.14476295 -0.021603798 0.056842476 0.058021 -0.11028762 -0.1963819
0.054985993 0.09485204 -0.0019068159 0.041068207 0.12345102 -0.20450924 0.03306214 -0.18388548
0.18062504 -0.053545967 0.12957627 0.018373773 -0.10599864 -0.038118213 0.054502673 0.043250646
-0.123978116 -0.20034792 0.023431862 0.16061686 0.047042176 0.15506956 0.19831388 0.03551465
-0.03691959 0.09464566 -0.23633586 0.10567053 -0.047959298 -0.094698004 -0.022268835 0.05016854
0.040853813 -0.22748515 0.018908484 -0.04044662 0.028687676 -0.19695443 0.16359982 0.10440701
0.108141966 0.13432324 -0.107077755 -0.19322212 -0.19222496 -0.17322692 0.23509985 -0.18518852
-0.008016752 -0.095145844 0.23612395 0.19079155 -0.104167156 -0.14165124 -0.16543989 -0.16030294
-0.03632416 0.054347333 -0.14547916 -0.13313152 0.13532181 -0.23676491 -0.05037545 0.059374243

linear3.bias f4 [10]
00000000: c927 8c3d 83c8 1b3e 9989 d33d c8d2 4f3d
00000010: d3ea ea3b b7cc 693d f700 a43c 0c08 ca3d
00000020: 4742 8dbd d49a 043e
0.06843526 0.15213208 0.10328979 0.050738126 0.0071691065 0.057079997 0.020019991 0.09864816
-0.06897407 0.12949687
